lunar_lander_dqn (1).pth (torch, 75362 bytes, 6 tensors)

fc1.weight f4 [128, 8]
0	0x3e54979a	0.20760956
1	0xbec3ee4f	-0.38267753
2	0xbebed04b	-0.3726829
3	0x3f90c947	1.1311425
4	0x3ef80e8a	0.48448592
5	0xbfa0155b	-1.2506517
6	0x3db4e5b9	0.088328786
7	0x3f043e80	0.5165787
8	0x3e744047	0.23852645
9	0xbe57579d	-0.21029516
10	0x3f88d477	1.0689839
11	0xbefad289	-0.4898875
12	0xbeb5fa02	-0.35542303
13	0x3dd4b9d9	0.1038701
14	0x3f2ad91c	0.6673753
15	0x3e87332a	0.26406223
16	0xbe2042bc	-0.15650457
17	0xbf2b59c4	-0.66933846
18	0xbebcb030	-0.3685317
19	0x3fbc3df2	1.4706404
20	0x3b76b1c3	0.0037642575
21	0x3f2ae374	0.66753316
22	0xbfbf7be6	-1.4959686
23	0x400999e3	2.1500175
24	0x3ea883bb	0.32913002
25	0xbdd40d83	-0.1035414
26	0x3ef44151	0.47706082
27	0xbd7daaab	-0.06193034
28	0xbebf2d9b	-0.37339482
29	0x3ddf5d86	0.1090651
30	0x3fce5ead	1.6122643
31	0xbf2df968	-0.6795869
32	0xbdf28e82	-0.118435875
33	0x3ea2649c	0.31717384
34	0x3c0bea89	0.008539804
35	0x3f028170	0.50978756
36	0xbf39050c	-0.72273326
37	0x3d201142	0.03907896
38	0x3f6f87c6	0.9356655
39	0x3f28178b	0.65660924
40	0xbd517599	-0.05113754
41	0xbe80df3d	-0.25170317
42	0x3e3f22e7	0.18665658
43	0xbd367031	-0.044540588
44	0xbf6837b5	-0.9071
45	0xbecad4ba	-0.39615422
46	0x3f86bb28	1.0525866
47	0x3d9a1ab9	0.07524628
48	0x3f3346be	0.7002982
49	0xbe5dc46d	-0.21656962
50	0xbd0d6771	-0.034522478
51	0xbe8be4d0	-0.27323008
52	0xbf620060	-0.8828182
53	0x3d33f658	0.043936104
54	0x3ebfee55	0.3748652
55	0x3f07a52f	0.52986425
56	0xbf431452	-0.7620288
57	0x3dd2d6b2	0.10294856
58	0x3ef88b19	0.48543623
59	0xbf2d644b	-0.6773116
60	0xbe54cc5e	-0.20781085
61	0x3e77975f	0.24178837
62	0x3ef49111	0.47766927
63	0x3ebd84fa	0.37015516
64	0xbeb1fd3f	-0.34763524
65	0x3c967d20	0.018370211
66	0xbf5ad8cf	-0.85487074
67	0x3e0841e8	0.13306391
68	0x3eabadc7	0.3353102
69	0xbf8bb48f	-1.0914477
70	0x3f1adba9	0.60491425
71	0x3f5f734b	0.872853
72	0x3f945b26	1.1590316
73	0xbdce9c22	-0.10088374
74	0x3e89f7da	0.26946908
75	0xbf3bb395	-0.73320895
76	0xbf195833	-0.59900206
77	0x3d295222	0.041338094
78	0x3ed2e51b	0.4119042
79	0x3e4e16e7	0.20125924
80	0xbff379be	-1.9021528
81	0x3d62bbe0	0.055354953
82	0xbedf3c2e	-0.436006
83	0xbec205c8	-0.37895036
84	0xbf201b9f	-0.62542146
85	0xbeb5103f	-0.35363957
86	0x3f01655e	0.505453
87	0xbe65e2a2	-0.22449735
88	0xbf99f4fc	-1.2027888
89	0x3ecdee2f	0.40220782
90	0xbef69cc7	-0.48166487
91	0xbe4c0f07	-0.19927607
92	0x3fb297a4	1.3952527
93	0x3f4877b2	0.7830764
94	0xbedd7896	-0.43256062
95	0xbf3239a7	-0.6961922
96	0x3f3b85ad	0.7325085
97	0xbea7a70d	-0.32744637
98	0xbfa9c5ba	-1.3263466
99	0xbf9ec051	-1.240244
100	0xbf550f1d	-0.83226186
101	0xbde9fdfc	-0.11425397
102	0xbfb82f23	-1.4389385
103	0xc01d6d86	-2.4598098
104	0x3f295081	0.66138464
105	0xbed37d87	-0.41306707
106	0xbe88e65d	-0.26738253
107	0xbf81ae08	-1.0131235
108	0x3f475650	0.7786608
109	0xbdfbaf8d	-0.12289343
110	0x3f1bbc44	0.60834146
111	0x3f0cf096	0.55054605
112	0x3ced9ba6	0.029004883
113	0xbd7d1178	-0.061784238
114	0x3ece6903	0.40314493
115	0x3d4bbed3	0.04974253
116	0xbec3446b	-0.38138136
117	0x3f22370e	0.63365257
118	0x3f4d448d	0.80182725
119	0x3df8c332	0.121466056
120	0x3e006d03	0.12541585
121	0xbeceda45	-0.404009
122	0xbfffcd65	-1.9984556
123	0xbb981263	-0.0046408637
124	0x3fa580d2	1.2929938
125	0xbf626a8c	-0.8844383
126	0x3bdf389d	0.0068121688
127	0x3e159edf	0.14611386
128	0xbe87985a	-0.26483423
129	0xbd46d5fe	-0.048543923
130	0x3fb6719d	1.4253422
131	0xbf1958bf	-0.5990104
132	0xbf7222c0	-0.94584274
133	0xbf52d2b2	-0.82352746
134	0xbff380b7	-1.9023656
135	0x3ef27dea	0.4736169
136	0x3f6a458f	0.9151239
137	0xbe085b3d	-0.13316055
138	0xbeab044a	-0.3340171
139	0xbf8b6c7e	-1.0892484
140	0x3fb3ea5a	1.4055893
141	0x3ebde07e	0.37085336
142	0x3f4948a9	0.78626496
143	0xbe81383c	-0.25238216
144	0xbdc00e33	-0.09377708
145	0xbe02c8a2	-0.12771848
146	0x3f544dca	0.82931197
147	0xbe45671a	-0.19277611
148	0xbf41543a	-0.75519145
149	0x3eac9c5b	0.3371304
150	0x3ee874ab	0.4540151
151	0xbf96d158	-1.1782637
152	0x3e4d5b27	0.20054303
153	0xbe201495	-0.15632851
154	0x3db620c9	0.08892972
155	0xbf348555	-0.7051595
156	0xbf5e029b	-0.86722726
157	0xbdb15304	-0.08658412
158	0x3f3c9856	0.73669946
159	0xbfce15d4	-1.6100411
160	0x3e04a0ec	0.12952012
161	0x3db6fcfa	0.0893497
162	0x3e924373	0.28567085
163	0x3ef7105b	0.48254666
164	0x3e180ee8	0.14849436
165	0xbdb0399f	-0.0860474
166	0x3f15de85	0.5854266
167	0x3ea90ff2	0.33019978
168	0xbf2ec8d5	-0.68275195
169	0xbd420131	-0.047364417
170	0xbe9b8eff	-0.30382535
171	0xbe10eb7a	-0.14152327
172	0x3d83174a	0.064009264
173	0x3f087716	0.5330671
174	0x3e98bd1a	0.29831773
175	0x3e83b349	0.2572272
176	0xbf39d25c	-0.7258661
177	0x3d91e832	0.07124366
178	0x3e9b0787	0.3027918
179	0xbd72b36e	-0.05925315
180	0xbfc9020a	-1.5703747
181	0x3f777b1a	0.96672213
182	0x3e7616f5	0.24032195
183	0xbd319d6e	-0.043363027
184	0xbd271646	-0.040792726
185	0x3ea8df7f	0.32983014
186	0x3ee0bbdd	0.43893328
187	0x39e77352	0.00044145674
188	0xbf1942fc	-0.59867835
189	0xbe87e8a3	-0.26544675
190	0xbcda0100	-0.026611805
191	0xbdcd0734	-0.100111395
192	0x3e73874e	0.23782083
193	0x3f20e185	0.62844115
194	0xbe19558a	-0.14974037
195	0xbd42b748	-0.047538072
196	0x3f1b98f7	0.6078028
197	0xbf00db47	-0.5033459
198	0xbf621512	-0.883134
199	0xbe3bc891	-0.18338229
200	0xbdb7206a	-0.08941729
201	0xbd728359	-0.059207294
202	0x3d153d9e	0.036435716
203	0xbf367c99	-0.7128387
204	0x3f5f63bf	0.87261575
205	0x3d019ecf	0.031645592
206	0x3f28d1e1	0.6594525
207	0x3e024df9	0.12725057
208	0xbff933f9	-1.9468986
209	0x3d98da3e	0.074635014
210	0xbf464b48	-0.7745862
211	0xbe94346b	-0.28946242
212	0x3d2cef67	0.0422205
213	0xbe7fc3c8	-0.24977028
214	0xbf9ae8a2	-1.2102244
215	0x400712fd	2.110534
216	0xb9eacca2	-0.0004478442
217	0x3aeefe64	0.0018233773
218	0x3ce2140b	0.027597448
219	0xbc04c1f5	-0.008102884
220	0xc0591bec	-3.3923292
221	0x3dbb1074	0.091339976
222	0x3d72b5b8	0.05925533
223	0xbd508c8d	-0.05091529
224	0xbefabca7	-0.48972055
225	0x3cf580d4	0.029968657
226	0xbecbc373	-0.39797553
227	0x3fa2a0a2	1.2705271
228	0x3e83b1ca	0.2572158
229	0xbfb43152	-1.4077551
230	0xbf0e4ad6	-0.5558294
231	0x3fad7079	1.3549949
232	0xbf207177	-0.62673134
233	0x3c51cc03	0.012804988
234	0xbf1536a1	-0.5828648
235	0x3efb9162	0.49134356
236	0xbedcbd81	-0.4311333
237	0xbf5c8c8f	-0.86151975
238	0x3ea58cc3	0.32333955
239	0x3f5727fc	0.84045386
240	0xbec4f15a	-0.38465387
241	0x3ea132f7	0.31484196
242	0xbf2ffacf	-0.6874208
243	0xbf8d7a54	-1.1052957
244	0x3eb5fce9	0.35544518
245	0x3e82d28f	0.25551268
246	0xbe53b710	-0.20675302
247	0xbfbbee5a	-1.4682114
248	0xbf8a0542	-1.0782855
249	0x3f114376	0.5674356
250	0xbf1db9be	-0.61611545
251	0xbe8cad0a	-0.27475768
252	0x3e94ae3c	0.2903918
253	0x3eb79bc5	0.3586103
254	0xbf2def36	-0.6794313
255	0xbfcd183d	-1.6023022

fc1.bias f4 [128]
0	0x3ee3ecb6	0.44516534
1	0x3f309c0a	0.68988097
2	0x3eafdedd	0.3434972
3	0xbde0c190	-0.10974419
4	0x3e602391	0.21888568
5	0x3eb2f2d6	0.34950894
6	0x3f1eaca8	0.619822
7	0xbe8bd17c	-0.2730826
8	0x3d0ecf45	0.034865636
9	0xbf1afa97	-0.6053862
10	0xbd51ec1c	-0.051250562
11	0x3e7a9700	0.24471664
12	0x3f12762a	0.57211554
13	0xbed26fb5	-0.4110085
14	0x3e859a59	0.2609432
15	0xbe190ee5	-0.14947088
16	0xbf6cd057	-0.925054
17	0xbe1aad5d	-0.15105195
18	0xbe815990	-0.25263643
19	0x3f137f29	0.57615906
20	0xbe3e06af	-0.18557237
21	0x3e95b4e2	0.29239565
22	0x3e35f66e	0.17769787
23	0x3e93bed1	0.2885652
24	0x3e2e5fdd	0.17028756
25	0x3ed15c27	0.4089062
26	0x3f0a1325	0.5393546
27	0xbb550102	-0.0032501821
28	0xbed031e2	-0.40663058
29	0xbe1ccf06	-0.15313348
30	0x3ef687af	0.48150393
31	0x3db45356	0.088049576
32	0x3e242fd6	0.16033873
33	0xbf074d9f	-0.52852815
34	0xbb21dca1	-0.0024698155
35	0xbf3ddf1f	-0.7416858
36	0xbf6fc36c	-0.93657565
37	0x3ec5cf83	0.3863488
38	0x3f1c7fd6	0.6113256
39	0x3d5381b3	0.051637363
40	0x392750ae	0.00015956417
41	0x3e364b95	0.1780227
42	0x3e06bdbd	0.13158317
43	0x3e50c55c	0.20387787
44	0x3e9fc1b2	0.31202465
45	0x3f0e7b12	0.5565654
46	0x3f289e28	0.6586633
47	0x3e8b6556	0.2722575
48	0x3e971111	0.29505208
49	0x3e97eaf2	0.29671437
50	0xbe4a9077	-0.19781671
51	0x3d2b8700	0.041876793
52	0xbee03e8a	-0.43797714
53	0xbc95adbe	-0.018271323
54	0xbf1ff6d4	-0.62486005
55	0x3df11485	0.11771492
56	0xbe4ba187	-0.19885837
57	0xbc9ea418	-0.019365355
58	0x3ead6ed2	0.33873612
59	0xbf3dd515	-0.7415326
60	0xbe3791c3	-0.17926697
61	0x3e7d1e2a	0.24718538
62	0x3ee75fd4	0.451903
63	0x3ea3e245	0.32008567
64	0x3edae619	0.42753676
65	0xbfb472eb	-1.409757
66	0x3e523448	0.20527756
67	0x3ec8befb	0.39208207
68	0x3bdd5698	0.0067547075
69	0xbe025d82	-0.12730983
70	0x3eb8a960	0.36066723
71	0x3eabadaf	0.33530948
72	0xbf3fbe92	-0.7490016
73	0x3ea15a27	0.31514093
74	0x3de1a856	0.11018436
75	0x3e84951d	0.25895014
76	0xbed88aea	-0.42293483
77	0x3ef3889f	0.4756517
78	0x3ed8f84a	0.4237693
79	0x3ef54e10	0.4791112
80	0xbeadcfcd	-0.33947602
81	0xbe759cde	-0.23985621
82	0x3f2382f8	0.6387172
83	0xbf15cc05	-0.58514434
84	0x3ba1791d	0.004927768
85	0x3d05b255	0.032640774
86	0xbd94830c	-0.07251558
87	0xbf0b10cc	-0.54322505
88	0x3e4181cd	0.18897171
89	0x3ee14472	0.43997532
90	0xbe37fdea	-0.17967954
91	0x3ee98ff1	0.4561763
92	0xbed7a875	-0.4212071
93	0xbcc11d5e	-0.023573574
94	0x3ead8a67	0.33894655
95	0x3e28f861	0.16500999
96	0xbf108f16	-0.5646833
97	0x3ee6d667	0.4508545
98	0x3db0b275	0.08627788
99	0xbcacc965	-0.021092126
100	0x3eb2ac86	0.3489725
101	0xbe6617a8	-0.22469962
102	0xbe3615f4	-0.17781812
103	0x3e987c00	0.29782104
104	0x3f004707	0.5010838
105	0x3f00db33	0.5033447
106	0xbeca1926	-0.39472312
107	0xbe22b6cc	-0.15890044
108	0xbedf78cb	-0.43646845
109	0xbefa3ab8	-0.48872924
110	0x3e22b3cc	0.158889
111	0xbf0545c6	-0.5205959
112	0xbeb06aba	-0.34456426
113	0x3eefe26b	0.4685243
114	0xbf46c1bc	-0.77639365
115	0xbe854d66	-0.26035613
116	0x3ee65bb2	0.44991833
117	0x3c589ecd	0.013221455
118	0x3aaca80f	0.0013172644
119	0xbf37fc0e	-0.7186898
120	0xbec906b6	-0.39262933
121	0x3e6a7fd8	0.22900331
122	0x3b4742bd	0.003040477
123	0xbf08f52e	-0.53499115
124	0x3e3bfd15	0.18358262
125	0x3f259d8b	0.64693516
126	0xbcda015d	-0.026611978
127	0x3f0eb0c8	0.55738497

fc2.weight f4 [128, 128]
0	0x3da07225	0.07834271
1	0x3ee80e5a	0.4532345
2	0x3da9591d	0.0826895
3	0xbf984bb2	-1.18981
4	0x3eb07941	0.3446751
5	0xbf6abfd7	-0.91698974
6	0x3ee8213d	0.4533786
7	0xbca7d1de	-0.020485815
8	0x3e329401	0.17439272
9	0x3e3efba3	0.1865068
10	0x3e8712ba	0.26381475
11	0xbe8e9308	-0.2784655
12	0x3ddedd32	0.108820334
13	0x3e81b9f3	0.2533718
14	0xbf54e9a7	-0.83169025
15	0x3d83fb32	0.06444396
16	0x3f2ea51d	0.6822069
17	0x3cba4c52	0.02274147
18	0xbfac6053	-1.3466896
19	0x3f07ebd9	0.5309425
20	0xbf3c50ae	-0.7356061
21	0x3e03afb8	0.1286
22	0xbd37d5a9	-0.044881497
23	0x3d06f9cc	0.03295307
24	0xbcdd8d47	-0.027044905
25	0xbebbdcea	-0.36691982
26	0x3df01ea7	0.117245965
27	0xbf9a7139	-1.2065803
28	0x3e8de49f	0.27713487
29	0x3e5ed6bd	0.21761604
30	0xbddeefc2	-0.10885574
31	0xbead0830	-0.3379531
32	0x3f46e89c	0.77698684
33	0xbf0cf298	-0.5505767
34	0xbf2dc146	-0.67873037
35	0x3ea0c7fd	0.3140258
36	0x3ef1edf9	0.4725187
37	0x3eb43963	0.35200033
38	0x3e0d69a9	0.13809837
39	0xbd07281b	-0.032997232
40	0x3df6185c	0.12016365
41	0x3e04b39f	0.12959145
42	0x3dd31a49	0.10307748
43	0xbdb95b34	-0.09050599
44	0xbe00b70c	-0.12569827
45	0x3e1b7a3f	0.15183352
46	0x3dd5c2fa	0.104375795
47	0xbe26d6bf	-0.16292857
48	0xbe8f83fa	-0.28030378
49	0xb8c2c7e6	-9.287875e-05
50	0xbf1b8118	-0.60743856
51	0xbe470171	-0.19434144
52	0xbf144c8e	-0.57929313
53	0xbf8273d2	-1.0191596
54	0x3f61d4e4	0.8821547
55	0xbca0ccc4	-0.01962889
56	0xbe9173b9	-0.28408602
57	0xbed62bd6	-0.4183032
58	0x3e88247f	0.26590344
59	0xbf346d01	-0.70478827
60	0x3eb80167	0.3593857
61	0x3db051dc	0.086093634
62	0xbd872705	-0.06599239
63	0x3d99d630	0.07511556
64	0xbef1bc77	-0.472141
65	0xbedceef2	-0.4315105
66	0x3f06f817	0.52722305
67	0xbbb72ea0	-0.005590275
68	0xbf5817e0	-0.8441143
69	0x3e68d5c9	0.22737803
70	0xbce23c94	-0.027616777
71	0x3df2a288	0.118474066
72	0xbf82960d	-1.0202042
73	0xbd289087	-0.041153457
74	0xbdf12320	-0.11774278
75	0xbddd47b6	-0.108046934
76	0xbe9f45c4	-0.31107914
77	0x3f38c7c0	0.72179794
78	0x3f7a438e	0.9775933
79	0xbc8e32ea	-0.017358262
80	0x3ee46bd9	0.4461353
81	0xbe7f6b74	-0.24943334
82	0x3f357eff	0.70896906
83	0xbf1f2141	-0.62160116
84	0xbf2af65f	-0.6678218
85	0x3ea6a0eb	0.32544646
86	0x3e29ff3a	0.16601267
87	0xbfc22a14	-1.5169091
88	0x3da835f3	0.08213415
89	0x3e1e96e5	0.15487249
90	0xbec48103	-0.38379678
91	0x3e9dafb6	0.3079812
92	0x3e89250a	0.2678607
93	0x3eb033d3	0.3441454
94	0xbe3dea30	-0.18546367
95	0x3ed05d54	0.40696204
96	0xbe57f0b9	-0.21087922
97	0xbf280b8a	-0.6564261
98	0x3f6dcab8	0.9288745
99	0xbde36be1	-0.11104561
100	0xbd91f771	-0.07127274
101	0xbec14dc8	-0.37754655
102	0x3ead898b	0.33894
103	0xbc8453d4	-0.016153254
104	0x3f55b967	0.83486027
105	0x3d861e45	0.06548742
106	0x3e9588a9	0.29205826
107	0xbc850bb9	-0.016240941
108	0xbf0eeea8	-0.5583291
109	0xbf1ad4a7	-0.6048073
110	0x3e0c7b1e	0.1371884
111	0x3d8c4a1f	0.06850075
112	0x3d0c5704	0.034262672
113	0x3caa6469	0.020799832
114	0x3e80bda9	0.251447
115	0x3de34cf4	0.11098662
116	0xbdceab04	-0.100912124
117	0x3e8fc0c2	0.2807675
118	0xbed909e0	-0.42390347
119	0x3da654e5	0.08121661
120	0x3e741311	0.23835398
121	0x3ed335f1	0.41252092
122	0xbee8b206	-0.4544832
123	0x3edd011b	0.43164906
124	0x3ea94e3b	0.33067498
125	0x3f33585c	0.700567
126	0xbe8a495f	-0.27009103
127	0x3d51ddda	0.051236965
128	0xbe1f4281	-0.15552713
129	0xbd8eba8d	-0.069691755
130	0xbeb885da	-0.3603962
131	0xba37e174	-0.0007014491
132	0x3f030582	0.5118028
133	0xbfcece70	-1.615675
134	0x3d652c8f	0.055950698
135	0x3e90e8e7	0.2830269
136	0x3ecb1906	0.3966753
137	0x3fc6e80f	1.5539569
138	0xbf035cd3	-0.51313514
139	0x3ee86635	0.45390478
140	0xbe80dbf2	-0.25167805
141	0x3ee0bbd3	0.43893299
142	0xbeea494b	-0.45759043
143	0xbf2b9b09	-0.6703344
144	0x3f26e703	0.65196246
145	0xbf06f733	-0.52720946
146	0xbf16a889	-0.58850914
147	0x3ef45f70	0.47729063
148	0x3e40b8db	0.18820517
149	0x3f027ffd	0.50976545
150	0x3eab462a	0.33451968
151	0x3e822a57	0.25422928
152	0x3d82ee44	0.06393102
153	0xbf8108c2	-1.0080798
154	0xbf25bd1e	-0.64741695
155	0xbd0cf695	-0.034414846
156	0xbe15b3da	-0.14619389
157	0x3f0de1c2	0.55422604
158	0xbe21e777	-0.15810953
159	0x3eb4e3d0	0.35330057
160	0x3f191a45	0.5980571
161	0x3f034342	0.512745
162	0xbf4baa17	-0.7955641
163	0x3fd316dd	1.6491352
164	0x3fc2a941	1.5207902
165	0xbe0733af	-0.1320331
166	0xbf337a95	-0.7010892
167	0x3cbcc4d3	0.023043072
168	0xbf089feb	-0.53369015
169	0xbe8dd2b5	-0.2769982
170	0x3f1c3648	0.61020327
171	0x3dfa6123	0.122255586
172	0xbc899afc	-0.016797535
173	0x3d7bb031	0.061447326
174	0xbf2a2bc7	-0.6647305
175	0xbf17d0c5	-0.5930293
176	0x3f0e16b5	0.555034
177	0xbf283ac2	-0.6571466
178	0xbf4885f2	-0.78329384
179	0x3f82d75d	1.0221974
180	0xbef9144d	-0.486483
181	0xbe9466e7	-0.28984758
182	0x3fb411f1	1.4067975
183	0x3f2f577f	0.68492883
184	0x3cfd08b8	0.030887946
185	0x3f4b2870	0.7935858
186	0x3ebd5db2	0.36985546
187	0xbfcba9b8	-1.5911169
188	0x3f0dcc79	0.55390126
189	0x3e43c26e	0.19117138
190	0xbf02b818	-0.51062155
191	0xbe3ef0b5	-0.1864651
192	0xbf3ee7c4	-0.74572396
193	0x40373860	2.8628159
194	0x3fcaacc7	1.5833977
195	0xbf27649a	-0.6538788
196	0xbf356a00	-0.7086487
197	0x3dfaed54	0.12252298
198	0xbf0f5141	-0.5598336
199	0x3ef2829b	0.4736527
200	0x3eba1119	0.3634117
201	0xbdf0a2f4	-0.11749831
202	0xbda92df6	-0.082607195
203	0xbdc37587	-0.09543901
204	0x3deeec61	0.116661794
205	0x3f0cc1db	0.549833
206	0x3e45266a	0.19252935
207	0xbf05aa44	-0.5221293
208	0x3ef5e49a	0.48025972
209	0x3ef31d30	0.47483206
210	0xbd0a301d	-0.03373729
211	0x3f87fe3d	1.0624462
212	0xbf55cb63	-0.8351347
213	0xbd0bf038	-0.034164637
214	0x3ed30ab8	0.41219115
215	0xbf0e3b16	-0.5555891
216	0xbe33af7c	-0.1754741
217	0xbf88f214	-1.0698876
218	0xbf30e170	-0.6909399
219	0x3d3da3f1	0.046298925
220	0x3f073249	0.52811104
221	0x3e16599b	0.1468262
222	0x3d8efbad	0.06981597
223	0x3f3d3c6d	0.7392033
224	0x3ff4113b	1.9067758
225	0xbf9d89d0	-1.2307682
226	0x3efde76e	0.4959063
227	0xbdf02f0c	-0.117277235
228	0xbe58839f	-0.2114396
229	0x3f6a5eec	0.9155109
230	0x3fe0117c	1.7505336
231	0xbf1fc110	-0.62403965
232	0x3f335bab	0.7006175
233	0xbe782ffe	-0.24237058
234	0xbec7059b	-0.38871464
235	0xbd51fd23	-0.0512668
236	0x3c70ab69	0.014689305
237	0x3f9e7b23	1.2381328
238	0x3e3c203e	0.18371674
239	0x3f69fbac	0.91399646
240	0x3f906bb8	1.1282873
241	0xbec1cbbe	-0.37850755
242	0x3fcb6d3b	1.589271
243	0x3f8938eb	1.0720495
244	0xbfbeaa91	-1.4895803
245	0xbe7381f4	-0.23780042
246	0xbfaa9bec	-1.3328834
247	0x3f0bcd33	0.54609984
248	0x3f8fecfc	1.1244197
249	0x3f10c08b	0.565438
250	0x3e960877	0.29303333
251	0x3f99aefe	1.2006528
252	0xbe8228ab	-0.25421652
253	0x3ce21cba	0.027601589
254	0xbfd8257f	-1.6886443
255	0xbf2eed57	-0.683309

fc2.bias f4 [128]
0	0xbd73bede	-0.059508197
1	0xbec88b28	-0.39168668
2	0xbc185f17	-0.009300015
3	0x3e5a9be1	0.21348526
4	0xbf1f7acf	-0.62296766
5	0x3eb39b24	0.350793
6	0x3ed71999	0.42011717
7	0xbecef1b4	-0.4041878
8	0xbcf1ed7d	-0.029532189
9	0xbcc7e6e5	-0.024402091
10	0xbda10cb3	-0.0786375
11	0xbe04eec4	-0.12981707
12	0xbd303213	-0.043016504
13	0xbe9cc604	-0.30619824
14	0xbaca8e24	-0.0015453738
15	0x3ebc5df0	0.3679042
16	0xbdee43c3	-0.11634018
17	0xbd01a939	-0.031655524
18	0x3decbcee	0.11559473
19	0x3db09b89	0.08623416
20	0xbef4dcc0	-0.4782467
21	0x3e3bfa96	0.1835731
22	0xbec6c616	-0.38823003
23	0x3d1c7088	0.038193256
24	0xbbbbf712	-0.00573624
25	0x3f356364	0.70854783
26	0xbe976802	-0.2957154
27	0xbba73f13	-0.0051039546
28	0xbddb6734	-0.10713044
29	0xbd985118	-0.074373424
30	0xbe90d2bd	-0.2828578
31	0x3e05f916	0.130833
32	0xbe185433	-0.1487587
33	0x3d8f922b	0.07010301
34	0x3a9d3149	0.0011992838
35	0xbe041f02	-0.12902454
36	0xbf1ac55f	-0.60457414
37	0x3d887492	0.06662859
38	0xbe884319	-0.2661369
39	0xbd352096	-0.04422053
40	0x3cf349ae	0.02969822
41	0xbde0df8f	-0.109801404
42	0xbe7f4074	-0.2492693
43	0xbdbb4003	-0.09143069
44	0xbdd5d114	-0.10440269
45	0x3ebfd2af	0.37465426
46	0xbdbcc4d8	-0.092172325
47	0xbe208503	-0.1567574
48	0xbe060ea5	-0.13091524
49	0xbcb9ee81	-0.022696735
50	0xbe29c81d	-0.16580243
51	0xbd9e73f3	-0.07736959
52	0xbf1147ce	-0.5675019
53	0x3c4aa258	0.012367807
54	0xbf564c30	-0.8371
55	0x3d92bfa3	0.07165458
56	0xbf19b146	-0.6003612
57	0xbe00cfe2	-0.12579301
58	0xbe5e9bfe	-0.21739194
59	0x3e7bd0ae	0.24591324
60	0xbd0529c6	-0.03251054
61	0xbd868497	-0.06568258
62	0xbdd9c075	-0.106324114
63	0xbc93e6ca	-0.018054385
64	0xbd50f0b0	-0.051010787
65	0x3c1e79e2	0.009672614
66	0xbd2af85d	-0.041740764
67	0x3e20129e	0.15632102
68	0xbdc73f96	-0.09728925
69	0xbbb3103a	-0.005464581
70	0x3e5f8fab	0.21832149
71	0xbd947c18	-0.072502315
72	0xbf00c1c3	-0.50295657
73	0x3d2d1415	0.04225548
74	0xbd25bdbf	-0.04046416
75	0xbdc193dc	-0.0945203
76	0xbebe74f4	-0.37198603
77	0xbe327091	-0.17425753
78	0x3cd0ab12	0.025472198
79	0xbc57cd04	-0.013171438
80	0xbd16cfd7	-0.036819305
81	0x3c6d3e13	0.014480132
82	0xbf5d07ff	-0.86340326
83	0xbefe9da5	-0.49729648
84	0x3c5f6bda	0.013636554
85	0x3d2ff1da	0.042955257
86	0xbd5fe99e	-0.054666154
87	0xbc186bac	-0.009303015
88	0xbc0b460e	-0.008500589
89	0x3e1c8956	0.15286765
90	0xbf0513c2	-0.51983273
91	0x3d9573c9	0.07297475
92	0xbe660fdb	-0.22466986
93	0xbe876e30	-0.26451254
94	0xbc44de57	-0.012015901
95	0xbf66a814	-0.90100217
96	0x3e96fc34	0.2948929
97	0xbd09a7d4	-0.03360732
98	0xbef400cd	-0.4765686
99	0xbd027962	-0.03185404
100	0xbca9b010	-0.020713836
101	0xbdd91313	-0.10599341
102	0x3b6bb72d	0.0035967336
103	0xbb234933	-0.0024915456
104	0xbc847cfd	-0.01617288
105	0x3f039734	0.5140259
106	0xbda9eeab	-0.082974754
107	0xbe9e61ae	-0.309339
108	0xbcc8c717	-0.024508996
109	0xbf25ef9a	-0.6481873
110	0x3df6e9e7	0.12056332
111	0x3ef7fe67	0.4843628
112	0xbd6c718f	-0.057725485
113	0xbeca6e01	-0.3953705
114	0xbdf579b5	-0.119861044
115	0xbdaf7bc7	-0.085685305
116	0xbd4d4f99	-0.05012474
117	0x3d385415	0.045002062
118	0xbdcc96a3	-0.09989669
119	0x3daa90d2	0.083284035
120	0xbf0b2fd9	-0.54369885
121	0xbd939855	-0.072067894
122	0x3e0c7390	0.13715959
123	0xbdec74d6	-0.11545722
124	0x3dbaeb93	0.091269635
125	0xbc92370e	-0.017848518
126	0xbdd7049b	-0.10498925
127	0x3f14fb9c	0.58196425

fc3.weight f4 [4, 128]
0	0xbe7fb9a8	-0.24973166
1	0xbfa57d48	-1.2928858
2	0x3d81bf3a	0.06335302
3	0xbf1a9047	-0.603764
4	0xbfb07a97	-1.3787411
5	0x3f9911c5	1.1958548
6	0x3f18a8af	0.5963239
7	0xbf5dde24	-0.86667085
8	0x3d054d30	0.032544315
9	0x3dacd66d	0.08439336
10	0xbb10a23e	-0.002206936
11	0x3bd81895	0.0065947273
12	0xbe53c39b	-0.20680086
13	0xbf377d9c	-0.7167604
14	0xbf85c02c	-1.0449271
15	0xbf4e865e	-0.8067378
16	0xbe9e1bf9	-0.30880716
17	0x3cf5d075	0.030006627
18	0xbf43b09e	-0.7644137
19	0xbec12a3d	-0.37727538
20	0xbf9d256e	-1.2277048
21	0xbfa768b8	-1.3078833
22	0xbfa5fc49	-1.2967616
23	0xbf094277	-0.5361704
24	0x3d680bd8	0.05665192
25	0x3f2d5bfe	0.67718494
26	0xbef73e9f	-0.48289964
27	0xbce534ba	-0.027979244
28	0x3d3c251b	0.045933824
29	0xbee4a16c	-0.44654405
30	0xbfe0f0f6	-1.7573535
31	0xbee71057	-0.45129654
32	0xbec9f91d	-0.3944787
33	0xbed33465	-0.4125091
34	0xbe9a66bc	-0.30156505
35	0xbc52c05f	-0.012863248
36	0x3f6f51a3	0.9348394
37	0x3ae55baa	0.0017498631
38	0xbfa82f03	-1.3139347
39	0xbd81e894	-0.06343189
40	0xbead0d7b	-0.33799347
41	0x3d2ff947	0.04296234
42	0xbea81859	-0.32831076
43	0xbea5870b	-0.32329592
44	0xbeab84f0	-0.3349986
45	0x3f1b3f67	0.6064362
46	0xbeaa2877	-0.33233997
47	0xbd9f13ba	-0.077674344
48	0x3cae7f1e	0.021300849
49	0x3bdf0f78	0.006807264
50	0x3f717505	0.9431918
51	0xbbcae12f	-0.0061913948
52	0xbf605340	-0.8762703
53	0x3ce0a9bb	0.027424684
54	0xbf5478b3	-0.8299667
55	0xbea54139	-0.32276323
56	0xbf1da25f	-0.61575884
57	0xbcf53ca5	-0.029936144
58	0xbf375227	-0.7160973
59	0xbf83b732	-1.0290282
60	0xbcec4168	-0.028839782
61	0x3ca677b4	0.02032075
62	0xbea95ff1	-0.3308101
63	0x3d919acc	0.07109603
64	0xbcfbea81	-0.030751469
65	0xbec5d8e6	-0.38642043
66	0xbc797405	-0.015225415
67	0xbf374eb3	-0.7160446
68	0xbd6c0c60	-0.05762899
69	0x3f42717d	0.7595442
70	0xbf0813f7	-0.53155464
71	0xbbe15e66	-0.0068777082
72	0xbf682133	-0.9067566
73	0xbe6879f5	-0.22702773
74	0x3c837852	0.016048584
75	0xbdaff95d	-0.08592484
76	0xc0169f3a	-2.3534684
77	0xbf9090fe	-1.1294248
78	0xbfc28d41	-1.5199357
79	0xbe7bf0fa	-0.24603644
80	0x3d56d56a	0.05244962
81	0xbeb29044	-0.3487569
82	0x3ec117e8	0.37713552
83	0xbf2ac8dd	-0.66712743
84	0x3fed2d9e	1.8529546
85	0xbc88b0c4	-0.01668585
86	0xbeebe1a9	-0.46070603
87	0xbe936494	-0.28787673
88	0xbcb36694	-0.021899499
89	0xbf1bc1b1	-0.60842425
90	0xbf84017e	-1.0312955
91	0xbeb0af08	-0.34508538
92	0xbf93525d	-1.150951
93	0xbf75cb9f	-0.96013826
94	0x3d8a31e8	0.067478
95	0xbfbfda1c	-1.4988437
96	0x3feb2ab8	1.8372412
97	0x3d92d939	0.07170338
98	0xbf974eb9	-1.1820899
99	0xbe9f28de	-0.31085867
100	0xbe3cd2ff	-0.18439864
101	0xbf09f56e	-0.5389012
102	0x3d48493a	0.04889796
103	0x3da081f9	0.0783729
104	0xbba8fe4b	-0.005157267
105	0x3f49e81e	0.7886981
106	0x3b129f8a	0.0022372925
107	0x3e0fa727	0.14028607
108	0x3d48d10c	0.049027488
109	0xbfb8a262	-1.4424555
110	0xbf2ecc05	-0.6828006
111	0x3f3c0338	0.7344241
112	0xbeb8641a	-0.3601387
113	0xbfa22f57	-1.2670697
114	0xbeb86d57	-0.3602092
115	0xbee1ce22	-0.4410258
116	0xbc44c712	-0.012010353
117	0xbe917b54	-0.28414404
118	0x3d6b5b1b	0.05745993
119	0x3f5aed59	0.85518414
120	0xbf9a6e1c	-1.2064853
121	0xbce51233	-0.02796278
122	0xbeff8e10	-0.49913073
123	0x3ff57f26	1.9179428
124	0xbe7154e9	-0.23567547
125	0xbf13cfaf	-0.57738775
126	0x3d7e7e14	0.062131956
127	0x3f2933c0	0.6609459
128	0xbec0dd73	-0.37668952
129	0xbfb01bcf	-1.3758487
130	0xbdaa6dca	-0.08321722
131	0xbf4e3f8e	-0.80565727
132	0xbfb8dee5	-1.4443022
133	0x3f9f9247	1.2466515
134	0x3f19db1e	0.6009997
135	0xbf8578bb	-1.0427469
136	0xbcc80afe	-0.024419304
137	0xbcbedfa7	-0.023300005
138	0x3c4687a1	0.012117297
139	0x3c713c57	0.014723859
140	0xbe22bc3a	-0.15892115
141	0xbf1b635c	-0.60698485
142	0xbf875d9b	-1.0575441
143	0xbf37921c	-0.7170732
144	0xbeb4e6df	-0.3533239
145	0xbd51aa4d	-0.051187802
146	0xbf2dd80b	-0.6790778
147	0xbee6d0d8	-0.4508121
148	0xbf9427ea	-1.1574681
149	0xbfaf4643	-1.3693317
150	0xbfa7fbb6	-1.3123691
151	0xbefe85bf	-0.49711415
152	0x3cadbc37	0.021207912
153	0x3f60940c	0.877259
154	0xbf156fb4	-0.5837357
155	0x3cdc76fc	0.026912205
156	0xbcae73f3	-0.021295523
157	0xbec0324e	-0.3753838
158	0xbfe060b1	-1.7529508
159	0xbf05e1da	-0.5229775
160	0xbeecd901	-0.4625931
161	0xbebf5969	-0.37372902
162	0xbe6d1de7	-0.23155938
163	0x3d635b03	0.055506717
164	0x3f62c03e	0.8857459
165	0x3ca69d3a	0.020338643
166	0xbf991838	-1.1960516
167	0x3d8d6ae5	0.06905154
168	0xbec0717a	-0.37586576
169	0x3c892116	0.01673941
170	0xbeaaab46	-0.33333796
171	0xbeac499b	-0.33649907
172	0xbe5bd8c2	-0.21469405
173	0x3f335de7	0.7006516
174	0xbf04654e	-0.5171708
175	0xbf1118f5	-0.56678706
176	0x3daefc9f	0.085442774
177	0x3cc43985	0.023953209
178	0x3f86937c	1.0513759
179	0x3d714aa9	0.058909092
180	0xbf88ff81	-1.0702974
181	0xbdb99313	-0.09061255
182	0xbf1f00be	-0.6211051
183	0xbe2be757	-0.16787468
184	0xbf0663f0	-0.5249624
185	0x3c187c06	0.009306913
186	0xbf3d2cdf	-0.7389659
187	0xbf8932fd	-1.0718685
188	0x3d8bd35a	0.068274215
189	0x3c8abb48	0.016935006
190	0xbec4eea5	-0.3846332
191	0x3d7bfc7a	0.061520077
192	0x3b9d4e2b	0.004800578
193	0xbecf68a7	-0.4050953
194	0xbded71a4	-0.11593941
195	0xbf19e296	-0.6011137
196	0x3cdfe393	0.027330196
197	0x3f5011da	0.8127724
198	0xbf12225c	-0.5708368
199	0xbcc2433c	-0.0237137
200	0xbf4278f5	-0.75965816
201	0xbece0914	-0.402413
202	0x3d650b07	0.05591872
203	0x3c630227	0.013855494
204	0xbfd569b2	-1.6672881
205	0xbf63cc66	-0.8898376
206	0xbfbab0dd	-1.4585224
207	0xbe9ca09e	-0.3059129
208	0xbb4149e1	-0.0029493498
209	0xbefc054e	-0.49222797
210	0x3f157d2e	0.58394134
211	0xbf12a1f2	-0.5727836
212	0x3ff298c4	1.895287
213	0x3cafb08f	0.021446494
214	0xbf0bf75a	-0.54674304
215	0xbddd6a22	-0.10811259
216	0x3b17477e	0.0023083384
217	0xbf02af2b	-0.51048535
218	0xbfafff44	-1.3749776
219	0xbeac834b	-0.3369392
220	0xbf7b2f7a	-0.9811932
221	0xbf573894	-0.84070706
222	0x3cf6525d	0.03006857
223	0xbf8fa311	-1.1221639
224	0x3fecec97	1.8509701
225	0xbd2abfaf	-0.04168671
226	0xbf8ecbf9	-1.1155998
227	0xbef97bc5	-0.4872724
228	0xbeea52d9	-0.45766333
229	0xbe83d7ee	-0.2575068
230	0xbd41b46a	-0.047291197
231	0x3d7502a6	0.05981698
232	0x3d7caed0	0.06169015
233	0x3eca89a4	0.39558136
234	0x3cb0b256	0.021569412
235	0xbde97156	-0.1139857
236	0x3bc76896	0.0060854657
237	0xbfcf24e4	-1.6183133
238	0xbf725eb4	-0.94675756
239	0x3f199995	0.5999997
240	0xbee80fa4	-0.45324433
241	0xbf965ca0	-1.1747017
242	0xbd3c6280	-0.045992374
243	0xbe40ea04	-0.1883927
244	0x3d819668	0.06327516
245	0xbe2e0358	-0.16993463
246	0xbb6b5565	-0.0035909053
247	0x3f504e29	0.8136926
248	0xbf9364d3	-1.1515144
249	0x3c397716	0.011319896
250	0xbea776cd	-0.32707825
251	0x3fcc075e	1.5939748
252	0xbde898c2	-0.11357261
253	0xbf163c51	-0.58685786
254	0xbbc5e9c9	-0.0060398323
255	0x3f6e6e66	0.93137205

fc3.bias f4 [4]
0	0x3e5181d0	0.20459676
1	0x3f0545ed	0.52059823
2	0x3eba477c	0.36382663
3	0x3e9f4f53	0.31115207
